# YOLOv5 🚀 by Ultralytics, GPL-3.0 license

# Parameters
nc: 7  # number of classes
depth_multiple: 1.0  # model depth multiple
width_multiple: 1.0  # layer channel multiple
anchors:

  - [6,10, 8,16, 22,14]  #4
  - [10,13, 16,30, 33,23]  # P3/8
  - [30,61, 62,45, 59,119]  # P4/16
  - [116,90, 156,198, 373,326]  # P5/32


backbone:
  #640*640*3
  [[ -1, 1, conv_bn_relu_maxpool, [ 32 ] ], # 0-P2/4
    #320*320*32
   [ -1, 1, Shuffle_Block, [ 128, 2 ] ],  # 1-P3/8
   #160*160*64
   [ -1, 3, Shuffle_Block, [ 128, 1 ] ],  # 2
   #160*160*64
   [ -1, 1, Shuffle_Block, [ 256, 2 ] ],  # 3-P4/16
   #80*80*128
   [ -1, 7, Shuffle_Block, [ 256, 1 ] ],  # 4
   #80*80*128
   [ -1, 1, Shuffle_Block, [ 512, 2 ] ],  # 5-P5/32
   #40*40*256
   [ -1, 3, Shuffle_Block, [ 512, 1 ] ],  # 6
   #40*40*256
   [ -1, 1, Shuffle_Block, [ 1024, 2 ] ],  # 7
   #20*20*512
   [ -1, 3, Shuffle_Block, [ 1024, 1 ] ],  # 8
   #20*20*512
  ]

# YOLOv5 v6.0 head
# concat之后通道翻倍
head:
  [[-1, 1, Conv, [512, 1, 1]], #20*20*256
   [-1, 1, nn.Upsample, [None, 2, 'nearest']], #40*40*256
   [[-1, 6], 1, Concat, [1]],  # cat backbone P4  40*40*512
   [-1, 1, C3, [512, False]],  # 12  40*40*256

   [-1, 1, Conv, [256, 1, 1]], # 40*40*128
   [-1, 1, nn.Upsample, [None, 2, 'nearest']], #80*80*128
   [[-1, 4], 1, Concat, [1]],  # cat backbone P3 80*80*256
   [-1, 1, C3, [256, False]],  # 16 (P3/8-small)  80*80*128

   [-1, 1, Conv, [128, 1, 1]], # 80*80*64
   [-1, 1, nn.Upsample, [None, 2, 'nearest']], #160*160*64
   [[-1, 2], 1, Concat, [1]],  # cat backbone P3 160*160*128
   [-1, 1, C3, [128, False]],  # 20 (P3/8-small)  160*160*64
   
   [-1, 1, Conv, [128, 3, 2]],  #80*80*64
   [[-1, 17], 1, Concat, [1]],  # cat head P4 80*80*128
   [-1, 1, C3, [256, False]],  # 23 (P4/16-medium) 80*80*128
   
   [-1, 1, Conv, [256, 3, 2]],  # 40*40*128
   [[-1, 13], 1, Concat, [1]],  # cat head P4 40*40*256
   [-1, 1, C3, [512, False]],  # 26 (P4/16-medium) 40*40*256

   [-1, 1, Conv, [512, 3, 2]],  # 20*20*256
   [[-1, 9], 1, Concat, [1]],  # cat head P5 20*20*512
   [-1, 1, C3, [1024, False]],  # 29 (P5/32-large) 20*20*512

   [[20, 23,26,29], 1, Detect, [nc, anchors]],  # Detect(P3, P4, P5)
  ]

